…
model.add(Dense(num_classes, kernel_regularizer=l2(0.01), kernel_initializer=RandomNormal(mean=0.0,stddev=0.01, seed=seed), bias_initializer=RandomNormal(mean=0.0,stddev=0.01, seed=seed)))

model.add(Activation('softmax'))

# Compiling model
epochs = 7
lrate = 1e-4
decay = lrate/epochs

optimizer = Adam(lr=lrate, beta_1=0.9, beta_2=0.999, epsilon=1e-08, decay=decay)

model.compile(loss='categorical_crossentropy', optimizer=optimizer, metrics=['accuracy'])
print(model.summary())
_________________________________________________________________
Layer (type)                 Output Shape              Param #   
=================================================================
conv2d_1 (Conv2D)            (None, 16, 24, 24)        416       
_________________________________________________________________
p_re_lu_1 (PReLU)            (None, 16, 24, 24)        9216      
_________________________________________________________________
max_pooling2d_1 (MaxPooling2 (None, 16, 12, 12)        0         
_________________________________________________________________
batch_normalization_1 (Batch (None, 16, 12, 12)        48        
_________________________________________________________________
conv2d_2 (Conv2D)            (None, 32, 8, 8)          12832     
_________________________________________________________________
p_re_lu_2 (PReLU)            (None, 32, 8, 8)          2048      
_________________________________________________________________
max_pooling2d_2 (MaxPooling2 (None, 32, 4, 4)          0         
_________________________________________________________________
batch_normalization_2 (Batch (None, 32, 4, 4)          16        
_________________________________________________________________
flatten_1 (Flatten)          (None, 512)               0         
_________________________________________________________________
dropout_1 (Dropout)          (None, 512)               0         
_________________________________________________________________
dense_1 (Dense)              (None, 128)               65664     
_________________________________________________________________
p_re_lu_3 (PReLU)            (None, 128)               128       
_________________________________________________________________
batch_normalization_3 (Batch (None, 128)               512       
_________________________________________________________________
dropout_2 (Dropout)          (None, 128)               0         
_________________________________________________________________
dense_2 (Dense)              (None, 10)                1290      
_________________________________________________________________
activation_1 (Activation)    (None, 10)                0         
=================================================================
Total params: 92,170
Trainable params: 91,882
Non-trainable params: 288
_________________________________________________________________

model_info = model.fit(x_train, d_train, validation_data=(x_valid, d_valid), epochs=epochs, batch_size=25)
# Final evaluation of the model
scores = model.evaluate(x_valid, d_valid, verbose=0)
…
